experiments/cnf/large/pretrained/pretrained_miniboone_checkpt.pth (torch_old, 313986 bytes, 7 tensors)

A f4 [10, 44]
00000000: f755 cb3c bcb9 953b 29d7 e93c 2d2e 14bc
00000010: 2793 ad3b e7a2 cabb cdc8 cd3c e3dd 99bc
00000020: ef41 50bd d082 213d 1d74 533d 77be ef3c
00000030: 6fa3 063d e232 8d3c c240 7abb f659 8f3d
00000040: bfe5 29bc 7306 583d 920e a03c 9acc 043d
00000050: 4552 4bbd bc6d 2a3d f260 de39 0eff 26bd
00000060: 266e bc3b 3fe8 c6bb 3df3 9cbc 2998 773b
00000070: fe5b 6bbc 88ec ac3c e85b 43bd 6b04 f33b
00000080: e860 11bc 1748 a23c 6c7b 4dbc eb5c 9cbc
00000090: 1c30 013d 6aef 073e c82c 8ebb c034 2f3d
000000a0: af95 263d 0aa2 353b b21b 2dbd ecfd cdbc
000000b0: c440 f5bb 0897 9bbc e2e0 af3c f17b e0bd
000000c0: f6e9 cdba 5369 563d 2c2b 47ba a12d 23bd
000000d0: ec3e 17bd bcaa e33c e56c 713b d233 5ebc
000000e0: 6c2d 1a3d c7c3 2dbc 9304 a13c bae1 123e
000000f0: 7776 ab3d d14c 103e b942 94bd fcbf cabd
00000100: da38 443c 155f 2abe d193 37ba 5c2e 993c
00000110: ce85 a1bd 1986 9d3d 0db8 92bd e067 87bd
00000120: b3cf 11bb 7410 80bc e1e1 7e3d b813 9c3c
00000130: 6966 333c 3c2b d6bd 1b2b 683d e876 533d
00000140: bbd6 d1bb 0a84 8b3c 5f6d 883c 930f 563d
00000150: be96 233e 2f86 883e d483 063c a0b2 bb3f
00000160: 167e 1d3c cb46 65bc ab0d ab3c f668 7d3d
00000170: a27b 383d 789d 873c 2b36 26bd d485 c63d
00000180: d16d 69bc 38b7 bebc 23ee 253d 2aab 73bb
00000190: b028 b83d fd8f 3a3d c8cd d2b8 3f59 18be
000001a0: 4426 95bc 1c8f 2fbc ea27 42bd 45ce 403c
000001b0: 8dba 2fbc 5e71 833d 8aeb 513d 2792 2f3d
000001c0: dbd0 333c 4f58 c7bc 233b 37bc 425a 23bc
000001d0: 1d86 fb3c 7d86 1ebc c81c 96bc 2d2c b3ba
000001e0: 8dbf 913c 27ac 7ebc 16d9 823d 90e9 8e3c
000001f0: 9a4a 4b3d e6f9 71bb 95bd 55bd 3b1d de3d
00000200: ab48 b83d 9132 023e 4bc7 26bd efa1 e8bd
00000210: 222f c2bc 0fe6 b13a 2f95 0abc e6d6 debc
00000220: f4ec a73b 9963 40bc 5398 c0bb a5ae 033c
00000230: 5490 c83c 4318 19bc 6ba2 dbbc f604 aabc
00000240: fd73 02bd fe12 74bc 64fb d23a f608 a7bc
00000250: e289 263b 8139 41bd 7ef6 68bb 9df1 dd3b
00000260: 55f4 d63c 5403 83bc cdc2 bf3a 66b2 ba3b
00000270: 8660 9abb e4b0 6d3c c3aa ac3a 143d 5bbb
00000280: 13b8 833b 4021 69bc 5e48 c73c 09d7 b2bc
00000290: 3ccf 9a3a 069f f43a c42c abba ca68 393c
000002a0: c1f6 febc eea4 83bd 1a52 333c 850a d8bc
000002b0: 1bd9 35bc 40e0 083c b9e0 de3c e8bd 933c
000002c0: 6a3f d23c 1823 a0bb 9e91 cebc 1771 8f3d
000002d0: 7b7a 32bd 5013 d13c a96f 443c 18b5 51bd
000002e0: f5ad 8c3b 4fb0 a5bc 151e 75bc 354c fe3c
000002f0: a0f1 2d3c 5da2 e538 5949 7039 9b95 453d
00000300: d729 953c d1d5 df3d c65a 413b 8c61 a9bd
00000310: b221 1bbc 9989 3dbd 0af9 39bd 02df f13c
00000320: 945a a9bb e8c7 b0bc c9c0 ce3c 9fe7 88bb
00000330: d01f 45bc 734b 6d3c f1d1 8d3c 14ee f13c
00000340: 5462 c1bb af54 1fbd 3b76 8eba bbb6 e8bb
00000350: 6e58 443c c7a9 da3b b87f 7f3c d8e4 c4bc
00000360: 93e0 62bd 3ef8 8fbd f56d 473c 1dd8 583e
00000370: c706 2bbd e18c fdbb 0cc8 1ebc 0f42 32bd
00000380: 147a d2bd be5b fe3c 2cf9 703d e3b3 303c
00000390: 06e6 00bd 57bd 7ebd 9a0d bdba 5ff5 4e3c
000003a0: 5fef b03b 55fa edbb 4303 2c3c 8fa3 863d
000003b0: 7f56 fb3d 639f 33bd e339 aa3d f170 2a3d
000003c0: 6f2f 183d af1b 59bd 1baf 593e d0ec bfbd
000003d0: d255 efbc f6b4 e6bb 24cf 56bd e719 453d
000003e0: efe0 03bd 8923 293b 64c7 12bc 921a 983c
000003f0: 1be3 bbbd e260 e9bc ba0f 26be accb 78bb
0.024821265 0.0045692604 0.02854498 -0.009044212 0.005297083 -0.0061839703 0.025120163 -0.018782562
-0.05084413 0.039431393 0.051624406 0.029265625 0.032870706 0.017236177 -0.0038185571 0.069995806
-0.010369717 0.052740525 0.019538198 0.032421686 -0.049639005 0.041608557 0.0004241537 -0.040770583
0.0057504354 -0.0060701664 -0.019158954 0.0037779904 -0.014365194 0.02110888 -0.04769507 0.007416298
-0.008873202 0.019809766 -0.012541633 -0.019087275 0.03154002 0.13274923 -0.0043388344 0.042774916
0.040670093 0.002771499 -0.04226274 -0.025145493 -0.0074845273 -0.018992916 0.021469537 -0.1096114
-0.0015709985 0.05234654 -0.00075976807 -0.039838437 -0.03692524 0.027791373 0.0036838588 -0.01356216
0.037640974 -0.010605759 0.019655501 0.1434392 0.08372205 0.14091803 -0.07239289 -0.09899899
0.011976445 -0.16637833 -0.00070029224 0.018698864 -0.07886849 0.07691593 -0.07164011 -0.066116095
-0.0022249043 -0.015632845 0.062227134 0.019052371 0.010949709 -0.10457465 0.056681734 0.05162707
-0.0064037717 0.017030735 0.016653715 0.052260946 0.15975472 0.26664874 0.008210141 1.4663887
0.009612581 -0.013993929 0.02088054 0.061867677 0.04503978 0.01655458 -0.040579002 0.096934944
-0.014247374 -0.023280725 0.040510308 -0.003718088 0.089921355 0.045547474 -0.0001005191 -0.14877795
-0.018206723 -0.010715272 -0.047401346 0.0117679285 -0.0107256295 0.064181075 0.05125002 0.04286399
0.010975088 -0.024334101 -0.011183533 -0.00997025 0.030703599 -0.009675619 -0.01832427 -0.0013669782
0.017791534 -0.015543974 0.06389062 0.017445356 0.049631692 -0.0036922633 -0.052182753 0.10845419
0.08998235 0.12714602 -0.040717404 -0.113590114 -0.023704115 0.0013572591 -0.00845842 -0.027202081
0.0051246826 -0.011742496 -0.0058775335 0.008037244 0.024482884 -0.009344163 -0.026810845 -0.020754319
-0.031848896 -0.014897106 0.0016096649 -0.020390015 0.0025411774 -0.04717398 -0.0035547311 0.0067731873
0.026239553 -0.015992798 0.0014630199 0.0056975363 -0.0047112135 0.014507506 0.001317345 -0.0033453153
0.004019746 -0.014229119 0.0243265 -0.021831052 0.0011811028 0.0018663115 -0.0013059606 0.011316488
-0.03112352 -0.06427942 0.0109448675 -0.026372204 -0.011099125 0.008354247 0.027206765 0.01803489
0.025665004 -0.004886996 -0.02521592 0.07003992 -0.043573838 0.025521904 0.0119895125 -0.051198095
0.004293198 -0.020225672 -0.014960785 0.031042198 0.01061669 0.000109498134 0.00022915508 0.048238378
0.018208427 0.10929454 0.0029503568 -0.08270559 -0.009468483 -0.0462738 -0.045403518 0.029525284
-0.0051682685 -0.021579698 0.025238412 -0.004178002 -0.0120315105 0.0144833205 0.017312022 0.02953247
-0.005901614 -0.03889912 -0.0010868976 -0.0071018613 0.011983974 0.006673071 0.015594415 -0.024034902
-0.055389952 -0.0702977 0.012172212 0.2117619 -0.04175451 -0.0077377413 -0.00969125 -0.04352003
-0.10277191 0.031049605 0.05883138 0.010785076 -0.031469367 -0.062192287 -0.0014423609 0.012631743
0.005399629 -0.007262508 0.0104988245 0.06574165 0.12272357 -0.043853175 0.08311822 0.041611616
0.03715461 -0.053004917 0.21258204 -0.0937134 -0.029215727 -0.007040615 -0.05244364 0.048120406
-0.032196935 0.0025808534 -0.008958671 0.018567357 -0.09174176 -0.02848858 -0.16216937 -0.0037963195

c.weight f4 [1, 44]
00000000: c0d5 c23e 390f 8c3d a428 a03e 364c 04be
00000010: c102 523d a491 5c3e d52f 533d 888c 433d
00000020: 1b77 f63b da04 bc3c 9099 57be c00b dcbe
00000030: ee4e df3c bd85 cc3c 2165 043e 0a7e ae3e
00000040: bc97 943d 1b84 133e 3277 1b3e 6a59 a03e
00000050: d241 c93d 2652 7fbf b5a1 d03d 210d 5a3c
00000060: a116 22be c94e 943c 12de 5a3e f7ec 08be
00000070: 4203 8ebd fc94 4fbe 3c0d 2fbe cdb2 093e
00000080: c32c d13d dc1a 93be c049 ddbc ecee 8fbd
00000090: eb42 673d 27ed 013e 08b4 ec3e 5476 48be
000000a0: 0288 1c3e 03e9 853e 0e34 0e3e 3f8f bf3f
0.38053703 0.06838841 0.31281006 -0.12919697 0.051272158 0.21539932 0.051559288 0.047741443
0.0075215227 0.022951532 -0.21054673 -0.42977715 0.027259316 0.024966115 0.12929203 0.34080535
0.072555035 0.14405863 0.15182188 0.31318218 0.09827007 -0.99734724 0.10187093 0.013308794
-0.15828945 0.018103974 0.21373776 -0.13371645 -0.06934215 -0.20271677 -0.17094892 0.13447113
0.10213616 -0.2873143 -0.027012706 -0.070279926 0.056460302 0.12688123 0.46231103 -0.19576389
0.15286258 0.26154336 0.13887045 1.496559

w.weight f4 [1, 256]
00000000: 98cb 6d3e 3085 433e 1b45 833e fef8 963e
00000010: b9b2 703e b847 193e 3a25 8a3e e60a 183e
00000020: 12a6 4a3e 2535 573e be71 823e 431e 693e
00000030: ba93 563e e431 b43e a129 853e 6480 5e3e
00000040: eceb 283e 7217 793e 09ae 973e ca2f 323e
00000050: f695 953e 6189 363e 7040 4b3e 1dc9 193f
00000060: ff1d 8d3e a3ab 6d3e a8c2 6b3e 94c2 7e3e
00000070: 8c59 723e 4d18 113e 9254 b63e da57 9b3e
00000080: f056 453e 7803 323e 9c48 433e aad4 6d3e
00000090: 7355 283e 53dd 2d3e 18f9 463e 5a97 2d3e
000000a0: 4091 943e e3e8 623e 0380 7e3e 588c 3c3e
000000b0: 45c6 883e 1802 983e d6c4 223e d47f 733e
000000c0: 4f58 c33e fcc3 9c3e a55b 613e 7a6f 933e
000000d0: 0769 953e 507b a33e 4782 523e 3010 813e
000000e0: 5b3d c83e 2028 983e f588 c03e cf20 213e
000000f0: aee2 463e f345 803e bc29 383e 978a 823e
00000100: ce9b b83e 2a18 6a3e e9da 673e eebc 513e
00000110: e8df 553e ffbd a73e ff3a 713e 51b8 473e
00000120: fc5a 643e b2bd 523e 90b6 203e bd79 8b3e
00000130: 7fa3 983e df71 433e ae15 c33e af9c 283e
00000140: ede0 623e 2729 9a3e 7c0e 0c3e c868 523e
00000150: bc1e 213e c77a 293e 8d6c 483e d9fe 5b3e
00000160: 276d 213e b47f 8a3e 0e1d 4a3e 5800 683e
00000170: 86cb 823e 4f65 813e 468c 3d3e 4a1b 4c3e
00000180: c75e bf3e f52a 273e 45ef 5b3e f4ae 363e
00000190: b012 863e 73d6 b53e fa39 423e 078a 603e
000001a0: c502 8f3e a665 4e3e a96b 773e 9514 533e
000001b0: b70f 843e 2fb5 393e 21aa b23e 728b 1c3e
000001c0: 066a 373e 1a23 923e 635f 693e 4c5e 323e
000001d0: f670 4b3e 1863 963e 977a 873e 5b5e 4a3e
000001e0: 7f8c 873e 1ed4 703e 3fb7 743e 0b8e 6d3e
000001f0: 427b 803e 4f3d 643e 6126 6e3e eecf 803e
00000200: 0989 1a3e 272b 1b3e baee 883e 51b0 563e
00000210: 2fe4 113e 35e5 5c3e 34f1 4d3e ab87 533e
00000220: 5871 463e d7ef 843e 65ba 593e 16b5 763e
00000230: f774 5b3e 0327 913e 3500 cd3e d3d3 8c3e
00000240: 9bef 8b3e 8e92 813e e67b 723e 698d c23e
00000250: 1d3f 6f3e c980 453e 6b94 273e 1a64 3c3e
00000260: f372 b93e 3fe1 603e 77a7 8a3e 06e7 863e
00000270: 2ea8 c83e 3970 3c3e a4d7 2c3e f552 703e
00000280: 7a29 813e 7f90 873e fc8a 833e 0039 563e
00000290: b80e 193e 3313 253e f0d4 9b3e ac2e 6b3e
000002a0: 5201 983e ff01 353e 3c77 263e ca89 833e
000002b0: fff0 8c3e f03a 463e 17ed 423e 3d32 793e
000002c0: f23b 053e 1f7d 6e3e 93e9 5f3e 00fc 663e
000002d0: 34f4 373e c30c 8d3e 1d10 5f3e 735d 223e
000002e0: c3cd 993e 126b a83e 2620 323e d7e8 8c3e
000002f0: 315f 293e f04c 1c3e 986a 833e 3eee 3c3e
00000300: 4820 323e 708d 523e ede9 313e 80cb 303e
00000310: b85b 693e 1a88 8d3e ae9b 513e b807 603e
00000320: 67f3 613e 3b39 993e f99d c33e 9327 9c3e
00000330: 7f09 703e 9d8a 9d3e 5989 693e 2e5f 973e
00000340: 90f3 8b3e 042f 5d3e 0467 783e ecb3 633e
00000350: 9e4d b33e 097b 453e 5f47 9a3e 581c 843e
00000360: 94c9 9c3e fac7 353e e278 873e cbae 2a3e
00000370: 2924 ca3e a474 553e 9aba af3e 06e4 473e
00000380: cde0 c43e 7875 313e 8f33 783e 0ddf 9b3e
00000390: 8638 663e 43b5 9f3e 6ee0 2d3e d601 223e
000003a0: aa20 883e ea9a 703e c4a4 263e 2f93 00bf
000003b0: 0af8 943e 1f2a 603e fb32 093e 69d9 273e
000003c0: 3b2f 5a3e ab7a 5d3e 4571 9c3e 3154 4c3e
000003d0: e848 333e 7714 213e 7531 be3e ea03 893e
000003e0: 15bd 5e3e ac94 573e e6c5 923e e4ad 823e
000003f0: 5897 3c3e 61bb 513e 367d 4c3e dae8 353e
0.23222196 0.19093776 0.2563866 0.2948684 0.23505677 0.14968765 0.26981527 0.14847907
0.19789913 0.21016367 0.25477403 0.2276545 0.2095479 0.35194314 0.26008323 0.21728665
0.16496247 0.2432535 0.29624966 0.17401043 0.29215974 0.17825843 0.198488 0.600725
0.27561948 0.23210005 0.23023474 0.24878913 0.23666972 0.14169426 0.35611397 0.30340463
0.19271445 0.17384136 0.19070667 0.23225656 0.16438846 0.1697896 0.19430959 0.16952267
0.29017067 0.22159152 0.2485352 0.18412912 0.26713768 0.29689097 0.158954 0.23779231
0.38153312 0.30618274 0.22007616 0.28795987 0.29181692 0.31930017 0.2055751 0.25207663
0.3910931 0.29718113 0.3760449 0.15735172 0.19422409 0.25053367 0.1798467 0.2549636
0.3605637 0.2286078 0.22642101 0.20482227 0.20886195 0.32762143 0.23557661 0.19503905
0.22300333 0.20580176 0.15694642 0.27241316 0.29812238 0.19086407 0.38102478 0.1646602
0.22156115 0.30109522 0.136774 0.20547783 0.1573438 0.16550742 0.19572659 0.21483935
0.15764295 0.27050555 0.19737646 0.22656381 0.255459 0.25272605 0.18510541 0.19932285
0.37376997 0.1632498 0.21477993 0.17840177 0.26186132 0.35515174 0.18967429 0.21927653
0.279318 0.20155963 0.24162163 0.2061332 0.2579324 0.18135522 0.34895423 0.15287569
0.17911538 0.28542405 0.22790293 0.17418784 0.1986731 0.29372478 0.26460716 0.19762556
0.26474378 0.23518416 0.23898028 0.23198716 0.25094038 0.22289012 0.23256828 0.25158638
0.15091337 0.1515318 0.26744634 0.20965697 0.14247201 0.2157181 0.20111543 0.20657222
0.19379175 0.25964233 0.2126251 0.24092516 0.21431337 0.28350076 0.4003922 0.2750536
0.27331242 0.25307125 0.23680076 0.37998512 0.2336392 0.19287409 0.1636521 0.1839756
0.36220512 0.21960925 0.2708089 0.26348132 0.3919081 0.18402185 0.16879135 0.23469146
0.25226957 0.2647743 0.25691974 0.20920181 0.14947021 0.16120605 0.30435896 0.22967023
0.29688507 0.17676543 0.16256422 0.25691062 0.27527615 0.1935842 0.19035755 0.2433557
0.13011149 0.23289917 0.21866445 0.22557068 0.1796425 0.275488 0.2178349 0.1585596
0.30039796 0.32894188 0.17395076 0.27521393 0.16540219 0.15263724 0.25667262 0.18450257
0.17395127 0.20561767 0.17374392 0.17265129 0.22788894 0.276429 0.20469543 0.21877944
0.22065507 0.29926476 0.3820646 0.30498943 0.23441122 0.30769816 0.228063 0.29564804
0.2733426 0.21599966 0.24258047 0.22236603 0.35020155 0.19285215 0.30132577 0.25802875
0.30622542 0.17752066 0.26459414 0.1666824 0.39480713 0.20845276 0.34322053 0.19520578
0.3845276 0.17329967 0.24238418 0.30443612 0.224825 0.3119298 0.16980144 0.15821013
0.2658742 0.23496595 0.1627379 -0.50224584 0.2909549 0.21891068 0.13398354 0.16391529
0.2130708 0.21628825 0.30555168 0.19953991 0.1750828 0.15730463 0.37147108 0.267608
0.21751817 0.21052808 0.2866661 0.25523293 0.18417108 0.20481636 0.19969639 0.17764607

N.layers.0.weight f4 [256, 44]
00000000: 3dfa 343c 0cb0 9eba 2963 f13b 0637 13bc
00000010: 04d4 933b 1afa c33b 01ab b136 271b 263c
00000020: e69d 29bc 65f4 1cbc 58ae 8abb 2089 5139
00000030: efaa ff3b 18cc a639 0f98 49bb fd9b 00bc
00000040: d21d ebbb c578 443c 72db 613b 6f6d c03a
00000050: c67f 49bc 3843 383c 3b34 2cbb 16c0 0c3c
00000060: 43e7 283b c108 543b cfa8 13bc 0406 203a
00000070: e987 dfbb e58a f63a 832a 9e3b 09a3 713b
00000080: 2d87 093c 50d0 4839 82af 183b f653 18bb
00000090: 05e3 0bbc 6d41 bc3b de07 953c dab1 12bc
000000a0: c1b2 52bb 892c e53a 7084 473c 0b86 1d3f
000000b0: 59f6 b9b9 6b07 2539 3c8c 60b8 dbd4 ceb6
000000c0: d834 2239 8b6e e8b9 058b c438 8667 2ab9
000000d0: 85b3 733a a681 fdb8 55d7 0e39 f5e0 053a
000000e0: a6b9 b037 b020 17b9 4bb7 63b8 16cf 28b9
000000f0: 57cc 8339 0673 c638 3dd3 a8b9 15b0 32b8
00000100: 1630 9239 5538 d4b5 cc76 89b8 d067 2cba
00000110: 2fea 5e39 9405 7439 bb84 a8b9 55d7 c0b8
00000120: ef99 8ab9 7111 b138 ec9b 5eb9 f0a1 ccba
00000130: 39cb c839 9477 1f39 f2fc b339 0a3d 06b9
00000140: 1564 fab8 e960 d4b9 186c bcb9 094c 3439
00000150: 1dc2 6c39 48c3 7739 13ac 9eb9 8335 77bc
00000160: 14dc 4ab7 e7b1 c337 9e36 3eb8 9c50 5437
00000170: 9dff c9b6 b24a 6db8 c5a6 5937 5055 26b8
00000180: c6f3 e737 5797 ef37 7aa2 db35 a929 2a38
00000190: 03f9 eeb7 2b62 0c37 3985 02b7 5926 22b6
000001a0: 8605 2237 4b06 62b7 a6e5 9bb8 3d03 1938
000001b0: 34f9 c137 a398 feb6 77ab 26b8 64cc bdb6
000001c0: 2373 cf37 2283 ee36 1647 9334 52fb 36b7
000001d0: ce6e 3d38 0913 7ab7 ba62 63b7 7296 67b8
000001e0: ca77 3438 ddbe 1638 4dde bab5 62aa 84b7
000001f0: b681 c737 cb63 23b8 e1d0 36b8 2706 20b6
00000200: a14b 4d38 ecf4 4738 b501 4cb7 52ef 2abb
00000210: b3d9 453d 4e93 113c 077a 763a 7f61 3ebc
00000220: 830f a13c a17b 0bbc 1878 49ba 62b7 aabd
00000230: 211e c43d f8b6 56bb 8015 d63c 4344 be3c
00000240: 1493 193d 625c 343d 583b 8339 6a30 d33c
00000250: 19d0 bf3d 7e42 da3d 15cf d5bc 58b5 f6bc
00000260: 1dc8 623d ff79 a6ba e650 9c3c bb5d b33c
00000270: fafa 0cbd 9acf a1be d7cc e13c 9b30 83bd
00000280: 1e6f cbbc 86d2 7ebd 324d 1dbe 43bb 703c
00000290: 1e45 d2bc dff4 dc3c 1ef9 fb3c 1c85 5f3e
000002a0: a063 f43a 185e b33e f564 b9bb de62 cc3c
000002b0: d8e5 003d 80eb 2b3d e472 303d 55b7 3c3e
000002c0: 4360 abb9 494e 14b8 f2cd 96ba aeb2 fc3a
000002d0: c3c7 a13a 330c 88b9 cc7f 30b8 ef93 a9ba
000002e0: 50c9 8f3a 3228 3f3a 8e0a d338 8288 10ba
000002f0: 7924 8fba a761 bcb8 35f7 4d39 38d5 943a
00000300: 427b 113a 0293 cfb8 9ee4 97ba f488 3e35
00000310: 6be3 da3a d371 28bb 828d 9cba fd34 b33a
00000320: 6b13 7ab9 c35f 1db8 407b 023b 2964 1d3a
00000330: 99f3 0e3b 71a5 6bba c590 33b9 89fe 183b
00000340: 13d2 c0b8 2efd 9aba 5502 ce3a b0ab 833a
00000350: afce 0f3a edba 72b9 ce07 c2ba a8d6 cbba
00000360: a996 bcb9 568f a039 7138 06bb 99a8 d2bd
00000370: d89b 003e 73a4 f9bc 9bd0 f0bc c50a fa3c
00000380: f8b7 c0ba cc17 51bd 3aea 1cbd 8273 1cbe
00000390: 9b98 4c3c 72e5 2cbd b913 2dbd 7eed e1ba
000003a0: a546 863d d637 91bc 3e0d e93c 194d e23c
000003b0: f970 41be d825 753c 96b3 b43b b5c9 633c
000003c0: 1ce7 67bd 816e 0abc fbca 503c 5503 233e
000003d0: 3073 a7bd 85a5 103f 76fa bb3d 94be 753e
000003e0: 8028 11bd 8dfb e8bd 88e1 463c 7866 7fbd
000003f0: b94c 99bd bd9e 8bbd 9014 2f3d fe2e ab3e
0.01104599 -0.0012106909 0.007366557 -0.008985287 0.004511358 0.005980742 5.2949185e-06 0.01013831
-0.010352587 -0.009579753 -0.004232209 0.00019982876 0.0078023593 0.0003181405 -0.00307608 -0.0078496905
-0.0071751857 0.011991684 0.0034463075 0.0014681051 -0.01229853 0.011246495 -0.002627625 0.008590719
0.0025772608 0.003235385 -0.009012415 0.0006104412 -0.0068216217 0.0018809704 0.004826845 0.0036870858
0.008394045 0.00019151089 0.002329797 -0.0023243404 -0.008538012 0.005745104 0.018192228 -0.008953536
-0.0032150003 0.0017484586 0.012177572 0.6153266 -0.00035469493 0.0001573839 -5.3536365e-05 -6.164058e-06
0.0001546921 -0.0004433285 9.371903e-05 -0.00016251029 0.0009296465 -0.00012088129 0.00013622393 0.00051070686
2.1067284e-05 -0.00014412659 -5.4291722e-05 -0.00016098874 0.00025138512 9.4628005e-05 -0.00032200842 -4.2602496e-05
0.00027883117 -1.5811626e-06 -6.554797e-05 -0.00065767486 0.0002125881 0.00023271731 -0.0003214235 -9.195382e-05
-0.000264361 8.4432664e-05 -0.00021229655 -0.0015612226 0.00038298385 0.00015207968 0.0003433 -0.00012801975
-0.00011939571 -0.00040507995 -0.0003593869 0.00017194463 0.00022579027 0.00023628504 -0.00030264314 -0.015088442
-1.2091379e-05 2.3328654e-05 -4.5350396e-05 1.2654953e-05 -6.020024e-06 -5.657477e-05 1.2973037e-05 -3.9656938e-05
2.7650862e-05 2.8561493e-05 1.6364058e-06 4.0569957e-05 -2.8487766e-05 8.367507e-06 -7.779622e-06 -2.4162202e-06
9.6572385e-06 -1.3472115e-05 -7.433751e-05 3.648106e-05 2.3123437e-05 -7.587559e-06 -3.9737173e-05 -5.656433e-06
2.4729938e-05 7.1082186e-06 2.7432606e-07 -1.090656e-05 4.5164306e-05 -1.4905593e-05 -1.3553241e-05 -5.5214805e-05
4.3026906e-05 3.5940542e-05 -1.3922778e-06 -1.5814967e-05 2.378305e-05 -3.8955168e-05 -4.3586715e-05 -2.384544e-06
4.8946244e-05 4.76734e-05 -1.2159745e-05 -0.0026082587 0.048303317 0.008885218 0.0009402339 -0.011619925
0.019660717 -0.008513362 -0.0007685437 -0.08335759 0.09576059 -0.0032762866 0.026133299 0.02322591
0.03749378 0.044033416 0.00025030482 0.025779922 0.09365863 0.10657214 -0.026099721 -0.030115768
0.055366624 -0.0012701153 0.019081544 0.02189528 -0.034419037 -0.316037 0.027563496 -0.06405755
-0.024833258 -0.06221249 -0.15361479 0.014693084 -0.025667723 0.026972232 0.030758437 0.21828121
0.0018645413 0.35032725 -0.005657787 0.024949487 0.031469196 0.041972637 0.04307832 0.1842931
-0.00032687382 -3.535886e-05 -0.0011505468 0.0019279325 0.0012342859 -0.0002594903 -4.208069e-05 -0.0012937764
0.001097003 0.00072920613 0.0001006323 -0.00055135053 -0.0010920904 -8.982728e-05 0.00019642415 0.0011355048
0.0005549678 -9.8979115e-05 -0.0011588519 7.097981e-07 0.0016699856 -0.002570261 -0.0011944028 0.0013672408
-0.00023849092 -3.7520902e-05 0.0019909889 0.0006004 0.0021812676 -0.0008989191 -0.00017124701 0.0023345074
-9.194403e-05 -0.0011824721 0.0015717248 0.0010045674 0.00054858153 -0.00023148554 -0.0014803351 -0.0015551643
-0.00035970405 0.00030624372 -0.002048042 -0.10286064 0.1255945 -0.030473923 -0.029396346 0.030522713
-0.0014703264 -0.051048085 -0.038309313 -0.15278438 0.012487556 -0.042211004 -0.042255137 -0.0017236916
0.06556443 -0.01772682 0.028448697 0.027624654 -0.18890752 0.014962636 0.0055145724 0.013903071
-0.056616887 -0.008449198 0.012743707 0.1591924 -0.08176267 0.5650256 0.09178631 0.23998481
-0.035439014 -0.113761045 0.012138732 -0.06235358 -0.07485337 -0.06817386 0.04274422 0.3343429

N.layers.0.bias f4 [256]
00000000: 8d41 30be 389e 6c3b d58b 3e3a b0e2 a1bd
00000010: 6179 0d3d 9358 97bf 80ca e23d 2b05 c4bd
00000020: d4ae 1aba 2a38 643b 5446 2eba fbe2 183a
00000030: a820 efbe ceab 1dbe 5e2f 8fbc 9573 093e
00000040: 4f84 0e3c 5423 92ba fb19 133f 8642 8a39
00000050: 7a07 07bd db94 883f 97c5 cc3b 7061 46ba
00000060: 6f5d c2bb 0ced 273d 24b3 a33d 5197 a5be
00000070: faab de3d 27cd 08bf 64ad 353f 9c3d 11bf
00000080: fcdf 2d3e 1ec2 07bb e393 d5ba 4f76 313d
00000090: 3fd9 a4be ae66 eb38 e219 033d 5108 94be
000000a0: 573c c83c 6a8c 10bf c1bc f63d d617 2c3a
000000b0: 705f 11be bc67 853a 07e4 ef3a e9ad 16be
000000c0: 307d 57bb c10d 9f3d c80f 10bf 4b4b 8e3c
000000d0: ac6a bcbe 4e7b a2be e775 29be 104b 563f
000000e0: 9bfc 0f3b 2e54 ae39 54ec 06ba ef4b 8b3d
000000f0: c066 5abe 0bf1 ff3e 81f5 66b8 fdd1 843d
00000100: 360c 9ebb 57a7 a1be 94f0 813f 5a22 703a
00000110: e3fc eeba b217 d8be 8502 153d da41 ff3d
00000120: 9e84 8d3f 97d2 1ebb ad87 63bf a779 b1be
00000130: 0e62 c63b 95b5 b63d 7708 6a3f bc85 9fba
00000140: 0669 793a d875 2fbf edda 993e 80a4 f3be
00000150: 072a 57be 8d63 23bf 9767 01bf cde5 bb3a
00000160: ddba d1bd 38f5 d4bc 2872 dd3d 8c32 eb3e
00000170: 3bb0 acbf d7bf 3d3b 1673 433f aba1 c9bc
00000180: 23b7 1abd 6bd0 ea3b b22d b8bb f0ad 973e
00000190: 02f4 09be 0cc9 febe 4a75 fd3a 99ef 19bf
000001a0: 50fb f7be e6b0 953b d4a7 423b 3905 283f
000001b0: 9bd5 6abe e19c cf3d 5cc8 0dbe 02cc 2e3f
000001c0: fbc3 ad3b 8e71 87ba 1892 e7be 8ac4 f83e
000001d0: fa84 263f cd43 79be cc10 393b c3a0 a0be
000001e0: c0c6 df3d 7843 89be c335 a63e edaa 2c3f
000001f0: 8a77 963d b11f 5ebe c296 7a3d ed93 0a3f
00000200: dcc4 7c3e 757e b13f 2839 443d ff43 7e3b
00000210: e88b 03bc 621d 94bd 2127 21be dacf 6b39
00000220: 931f 89bb e518 4e3f 0fd5 6ebe 5292 40bb
00000230: 39d3 ecbe c351 0839 83e4 8f3d 0bef 9f3d
00000240: 72aa 6a3a 6278 803b a9e3 4abf 0e32 a2be
00000250: 103e 7bbb 641a aaba 9fea 5cbf 37b0 62be
00000260: 8d8d 293f e97f 44bf 411c 873a 48c1 4aba
00000270: d231 ac3a 5ca1 6d3e fcae 593f 97b0 583f
00000280: a64f 2a3e d2ae e33c baf5 0abf cd16 7dbf
00000290: 1acf d6be e735 fe3d 408d 613a 179a 04be
000002a0: f754 91be f96f f8bb f753 dc3a fe1d 2b3d
000002b0: 7de5 56bf 3611 fe3d 736c 25bf 7970 073c
000002c0: f7d4 b5bf 1a07 da3d 86c6 773b 3910 b53c
000002d0: 4a72 2c3b b0ea 37bd 4cab c539 15de 7b3d
000002e0: 9fff bf3f f57c 5cbd 9c88 293f 2e0b 1c3c
000002f0: 2ed2 c23b 3613 c1bb f175 e1bd 3cf8 1f3f
00000300: 4fff bfbf ac89 713a 0bd5 8e3a e937 19be
00000310: 0d7c c23e 0620 d9ba 52dd bf3e 22c9 27bf
00000320: 316c 7bbf b144 bfbe 008f d33d 6a5f 81be
00000330: 2398 41bb bd20 dcbb 7578 94bd 3ea7 c4be
00000340: 2c19 5f3e 854f 5f3a 4800 e83b 97d1 053d
00000350: a4b1 65bb 5e97 a23f 8b64 093f 513e 5ebb
00000360: 93e7 51be ca36 ecbd 0280 93bf 6018 d9bd
00000370: bfce e8bc c325 d0ba d074 8a38 87de 9e3e
00000380: b20b 57be fcff bf3f ca32 30bf f9b6 b0ba
00000390: 1a1c 0ebd 2c93 543a 0e00 c0bf a4de 383c
000003a0: df58 21bb 91d8 f2ba fee0 8fbe e848 623d
000003b0: 81ed 673d 20c0 b73d 64bc 25bf 7646 923f
000003c0: d4c2 2b3f d6a5 5b3e 9d66 163e b8d1 cfba
000003d0: d5c2 553f 2b6a 95be 1ef2 85bc d347 c3ba
000003e0: 9119 8dbe 57dd 61bf 8de5 723e 4fad 8fbf
000003f0: 74f5 433d c77d b63d 46b7 343f 3b2e 50be
-0.17212506 0.0036105048 0.00072687614 -0.07904565 0.034539584 -1.1823906 0.1107378 -0.09571298
-0.0005900685 0.0034823515 -0.0006648053 0.00058321626 -0.46704602 -0.1539757 -0.017478641 0.13422997
0.008698537 -0.0011149445 0.5746152 0.00026370975 -0.032966115 1.0670427 0.0062491405 -0.000756762
-0.0059315483 0.04099755 0.07993153 -0.32342008 0.10872646 -0.5343804 0.709677 -0.56734633
0.16979975 -0.0020715068 -0.0016294684 0.04332572 -0.32196996 0.00011224799 0.032007106 -0.28912595
0.024442835 -0.56464255 0.12047721 0.0006564831 -0.14196563 0.001017801 0.001830221 -0.14714779
-0.0032881014 0.07766295 -0.5627408 0.017369887 -0.36800134 -0.317347 -0.16548882 0.83708286
0.0021970633 0.00033250585 -0.000514691 0.068015926 -0.21328259 0.4998859 -5.5064917e-05 0.064853646
-0.004823233 -0.31572983 1.0151544 0.0009160392 -0.0018233325 -0.42205578 0.036379356 0.12463732
1.1056097 -0.0024234408 -0.888789 -0.34663126 0.0060541695 0.08921353 0.91419166 -0.0012170593
0.0009514246 -0.6853919 0.3004984 -0.4758644 -0.21012126 -0.6382378 -0.5054869 0.0014335454
-0.102407195 -0.025995836 0.10812789 0.45937002 -1.3491281 0.0028953457 0.7634748 -0.024613222
-0.03777231 0.0071659586 -0.0056206817 0.2962489 -0.13471988 -0.49762762 0.0019337323 -0.6013122
-0.48433924 0.004568207 0.0029702084 0.6563297 -0.22933047 0.10137344 -0.13845962 0.6828004
0.0053029037 -0.0010333525 -0.45228648 0.48587447 0.65046656 -0.2434227 0.0028238771 -0.3137265
0.109265804 -0.26809287 0.32462892 0.6744831 0.07347019 -0.21691777 0.06117893 0.54131967
0.24684471 1.3866717 0.04790607 0.0038797853 -0.008028962 -0.07232167 -0.15737583 0.00022488777
-0.004184672 0.80506736 -0.23323463 -0.0029384089 -0.462549 0.0001300043 0.07026007 0.07809266
0.000895179 0.0039206007 -0.7925363 -0.31678814 -0.0038336553 -0.0012977836 -0.86295503 -0.22137533
0.66231614 -0.76757675 0.0010308103 -0.00077344896 0.0013137406 0.23206085 0.8503263 0.84644455
0.16631946 0.027793322 -0.542812 -0.98862916 -0.4195488 0.12412625 0.0008604117 -0.12949406
-0.28385136 -0.0075817076 0.0016809691 0.04177665 -0.8394392 0.124056265 -0.64618605 0.008266562
-1.4205617 0.10645886 0.0037807538 0.022102462 0.0026313239 -0.04490155 0.00037702394 0.06149109
1.4999884 -0.053830106 0.66224074 0.00952415 0.0059454655 -0.0058921827 -0.11008824 0.6248815
-1.4999789 0.0009213935 0.0010897232 -0.14962734 0.37985268 -0.001656533 0.37473541 -0.6554128
-0.9821196 -0.37357095 0.103300095 -0.25268108 -0.0029540143 -0.00671777 -0.07249538 -0.38408846
0.21786946 0.0008518624 0.0070801117 0.032670584 -0.003504851 1.2702444 0.5366904 -0.0033911655
-0.20498495 -0.11533888 -1.152344 -0.10600352 -0.028418897 -0.0015880394 6.602111e-05 0.3102915
-0.21000555 1.4999995 -0.688275 -0.0013482264 -0.03469477 0.00081090885 -1.5000017 0.01128355
-0.0024619622 -0.0018527677 -0.28101343 0.05524531 0.056622986 0.08972192 -0.64740586 1.1427753
0.6709416 0.2144998 0.14687581 -0.0015855348 0.83500415 -0.29182562 -0.016350802 -0.0014898725
-0.27558568 -0.8822836 0.23720379 -1.1224765 0.047841504 0.08910709 0.70592153 -0.20330136

N.layers.1.weight f4 [256, 256]
00000000: f5e3 2a3d e42e 1c3e 85d1 ce3d eab5 283c
00000010: 1f66 9e3d fd7e 053d 04e5 d73b c54d 753d
00000020: 0dd8 213e 9986 1d3e 2911 a23d fbe9 af3d
00000030: 1339 09bf 5221 b7be de49 aa3d 6d68 97be
00000040: e91e 763d e47e dd3d 5384 19be 2173 173e
00000050: 662f a6bc 31a1 d53d 4cd0 db3d 8d44 123e
00000060: 9798 243e 1ea6 1f3e c721 fcbe e277 183d
00000070: 9d00 173d d3f7 193d aabd 053d 1f96 dc3d
00000080: d76d 0fbc b362 a53d 24dc 113e 1686 b8bd
00000090: 8d12 22be aeda c93d 06a9 9e3d 5d1c 123d
000000a0: 041c a73d 2f96 bbbd 21b7 0d3e 0428 f73d
000000b0: 9579 0cbe c458 203e 910c 0c3e 9d9b 6c3e
000000c0: 7a91 273e 8e02 033e a7a8 043e bea7 893e
000000d0: c4ac a4be c6e5 8d3e bffc adbd 4ae9 72bd
000000e0: 0735 d63d 007b 2c3e 4c89 d13d c816 f8bd
000000f0: 3fc7 81bb 6913 863e 5158 023e ee1f 6abe
00000100: f589 813d 7881 a13e f5dd e2bc d4e5 523e
00000110: a7dd f03d bd6a 4bbe c114 2d3d 0776 033e
00000120: 02df 323e a6e2 173e 4385 073d 8613 6d3e
00000130: 4f11 243e 220b 96bd cf0a 3f3e 649f cb3d
00000140: 570e d83d 8d55 c93d 3f9b e23d 2247 f6be
00000150: 4c61 5cba 3608 09bc 36c9 8a3e 54c1 d83d
00000160: 3bee 52bc e250 033e 0d52 123d 71f5 803e
00000170: c8f6 533e 18d5 2e3e 3a06 51be 9b65 783d
00000180: 3fa9 0cbd 28b9 223d 0e42 cc3d 1929 babd
00000190: 40ee 2c3d ca4a dc3d d6fd 013e 491c 39be
000001a0: 9feb 513e ec83 073e eb6c 703d fc05 babd
000001b0: 79c1 6d3e d918 0fbd 5757 2b3e 900b 0abe
000001c0: 6793 0e3e de59 db3d ae44 92bd 51c2 0d3e
000001d0: 141e 0abe 8ef7 623e 0b36 433e 1c43 f8bd
000001e0: 8a1a 88be 3304 15bf 656c 0abd 5f2e 9f3e
000001f0: bab0 d8bd a454 b83a 7b2a 223e 97ff ebbd
00000200: 5d7c b43c 9639 503e f0d9 723d c347 163e
00000210: bf0e 783d 5d54 a83d 3866 df3d 53af cd3c
00000220: bc7a e63d 0de2 debd 8e56 bb3d a74a 693d
00000230: 466d 93bd b571 1b3e 3231 48bb 6b92 2b3d
00000240: 9fb0 873d ea4d 1b3e c2eb 8f3d f441 c0be
00000250: f1fd 913d d34e 8f3d 3ba3 9dbd b69a 8ebd
00000260: 1acc 8abe f115 c5be 7a81 943d 9f97 0a3e
00000270: b6d7 443e 34e1 69bd 92c3 c23d dccd 2dbe
00000280: 7a16 b83e d4e2 d73d ce83 443e 939c c93d
00000290: 4284 83be 309b 5a3d 93ca 1a3e 306e 92bd
000002a0: 2333 7cbd 0770 bcbe 131b f93d 6e42 143e
000002b0: a932 7ebe b53f 463c 7414 90be b2dc 2f3e
000002c0: da9b e93e 4dff 25be a7e8 4c3d b059 8c3d
000002d0: 1096 e83d b478 f9bd 5227 9e3d e992 693c
000002e0: e145 4cbe e0a8 133e 8d76 4a3e 763e e73d
000002f0: be22 893d 3412 eb3d c978 373d 0ff6 eebe
00000300: 691a 273b b51c fc3d c39c 593d 6566 57bd
00000310: e7eb 04bd 4eee 023e 6c98 f6bc 4388 c83d
00000320: c9b3 78bc 794c b6bd 2ed2 a8bd 27a7 31bd
00000330: ac6a 0b3e 4a65 23bf 4278 35be 2354 08be
00000340: 94a4 353d 33da 933d 73ee 883d 4226 943d
00000350: bbec 2d3e bed5 28bd 55cf 483d 4be0 603d
00000360: aac5 b93c cc0f 0b3d 9157 5cbe 2736 083e
00000370: d864 81be 5b34 373e 64b1 863d bd10 c43b
00000380: 84d6 ec3c e4b1 e4bd 828b 073e ef97 bf3d
00000390: 7daf a4be 3cae d13d 17ee e63d b536 f73d
000003a0: 5e90 013e e612 903d 1b92 28be 4044 59bd
000003b0: ed15 5fbe 3c89 183e bd22 e73d 0130 58be
000003c0: c04b 0ebd caaa 813d 3b8f b5bd f5f0 173e
000003d0: 4184 39be 8736 35bd c87a d7bd 57cb 123e
000003e0: e30c 9abd e8ee 88bd 0296 aebd 227e 913d
000003f0: c7fe ccbd 1f50 ffbd 1354 aebd 125f a43d
0.041721303 0.15252262 0.100985564 0.010297278 0.07734322 0.03259181 0.00658858 0.05988862
0.15805073 0.15383376 0.07913429 0.0858955 -0.53602713 -0.3576761 0.0831487 -0.29571858
0.060088072 0.10815218 -0.14991884 0.14790012 -0.020286273 0.104311354 0.10733089 0.14283963
0.16073833 0.15590712 -0.4924452 0.037223704 0.03686582 0.03758986 0.03265158 0.10770821
-0.008754215 0.08075466 0.14244133 -0.0900995 -0.15827389 0.09856163 0.077470824 0.03567158
0.081596404 -0.091595046 0.1383939 0.12068179 -0.13718255 0.15658861 0.13676669 0.23106237
0.16364089 0.12793943 0.12954961 0.2688579 -0.3216306 0.27714366 -0.08495473 -0.059304513
0.10459333 0.16843796 0.102312654 -0.1211372 -0.0039605196 0.26186684 0.12729003 -0.22863743
0.06325141 0.3154409 -0.027693728 0.20595485 0.11761027 -0.19864936 0.04225612 0.12837993
0.17467883 0.14832553 0.033086073 0.23151979 0.16022228 -0.07326342 0.18656467 0.09942511
0.1054961 0.09830771 0.11064767 -0.48101145 -0.00084068323 -0.008363774 0.27106637 0.105837494
-0.012874181 0.12823823 0.03572278 0.25187257 0.20699608 0.17073476 -0.20412531 0.060643774
-0.034341093 0.03972736 0.099735364 -0.0908987 0.0422194 0.107564524 0.12694487 -0.18077196
0.20500039 0.13233918 0.058697622 -0.09083173 0.23218335 -0.034935806 0.16732536 -0.13480973
0.13923417 0.107105 -0.07142006 0.13843657 -0.13488036 0.22164747 0.19063585 -0.12122175
-0.26582748 -0.5820953 -0.03379478 0.31090066 -0.10580583 0.0014063311 0.15836518 -0.11523359
0.022031957 0.20334467 0.059289873 0.14675812 0.060560938 0.08219216 0.109081686 0.025108015
0.112538785 -0.108829595 0.09147368 0.05695596 -0.07198577 0.15180095 -0.00305469 0.041887682
0.06625485 0.1516644 0.07027389 -0.37550318 0.071285136 0.069974564 -0.07697149 -0.069631025
-0.27108842 -0.38493302 0.07251258 0.13534401 0.19222912 -0.057099536 0.09509958 -0.1697306
0.35954648 0.10541311 0.19190904 0.09844317 -0.25686842 0.053370655 0.15116338 -0.07149923
-0.061572205 -0.3680422 0.12163367 0.14478466 -0.24824013 0.01210015 -0.28140604 0.17174032
0.45626718 -0.16210671 0.050026562 0.06853044 0.11356747 -0.121812254 0.077223435 0.0142562175
-0.19948532 0.1441989 0.19771786 0.1129121 0.0669608 0.11478081 0.044792924 -0.46672103
0.002549792 0.12310163 0.053128015 -0.052587885 -0.032451537 0.12786219 -0.030101977 0.09791615
-0.015179583 -0.08901305 -0.082432136 -0.0433723 0.13614911 -0.6382643 -0.17721656 -0.13313346
0.044346407 0.072193526 0.066861056 0.072338596 0.16984837 -0.041219465 0.049025852 0.054901402
0.022677261 0.033950612 -0.21517779 0.13301907 -0.2527225 0.17891066 0.06576803 0.0059834407
0.028910883 -0.111667424 0.13236812 0.09355151 -0.32165137 0.10238311 0.11275881 0.120709814
0.12652728 0.070348546 -0.16461985 -0.053043604 -0.21785708 0.14896101 0.11285923 -0.21112062
-0.03474021 0.063314036 -0.0886521 0.14838012 -0.18116857 -0.044241454 -0.105214655 0.1433538
-0.07521989 -0.06686193 -0.085247055 0.07104136 -0.100095324 -0.12466454 -0.0851213 0.08025946

N.layers.1.bias f4 [256]
00000000: 3a06 b03e 5837 81be 26bf 99bd da92 293f
00000010: c12b 61be 480e b7be a7f7 1a3e f361 8a3d
00000020: 629b a13d a48c dbbd e463 0bbe b728 92bd
00000030: 0215 8c3d e6c5 11bf ae85 b9be 6ccc fcbe
00000040: 163b f83c 7a5b 82bd f7e7 213f fdae 953d
00000050: d4c1 973e c651 8a3e da22 a0be b61d 293d
00000060: 8eac b1be 471a 13be c60a 15be 7d05 4a3e
00000070: 2a21 04be 94f2 94bd 7059 d43e de27 ca3e
00000080: f3cd c83c 3fca 603d 093f 9abd 4f73 eb3e
00000090: 1617 623e 32e6 2b3d 507b 323d 4363 1a3d
000000a0: 67f2 283b a332 583e 6b04 fc3e cc04 963d
000000b0: 5f16 90be 7dc0 b1be f757 a0bd b635 e4be
000000c0: 55bc 01bf 8722 e83e 3b0f a7be c8ce 03bf
000000d0: 0a2a b83e 27a6 263f 3a66 0ebf 8a4f 7f3e
000000e0: 856d 233f 8cc7 e2bd 35a1 353f 9ff4 0ebf
000000f0: b801 893e 6ddb 2e3f 7acf d839 f689 5fbe
00000100: 9af3 3fbf 6729 2c3e 2051 563e fc34 7abc
00000110: 925c 923d abdd 183f 81c3 afbe a63a e1bd
00000120: 7a69 87be dd95 943d 6d8f 29bf 3783 9abe
00000130: 067f 0a3f 5448 05bf 21db fc3e 7eaf 15be
00000140: 36af 463e e554 18be 6dae eebd 5e5c ffbd
00000150: 43e1 8fbe 9b05 4bbe 7602 82bd e4c8 5f3d
00000160: 20f9 0b3d 5b68 24bf 2558 5a3e ad0d 423c
00000170: ab39 4e3e 8556 74be 907a e7bd 9a4c a3bd
00000180: b3eb c1be cdfa d0bd c61f 823a c5b5 91bd
00000190: 0994 bebd 2a89 063f d171 843d 1984 ba3e
000001a0: b831 c2be dfd7 1ebe eeee 55bc 1d19 c93d
000001b0: 1de4 a63e 50ae 50be 7988 253f 21f5 983e
000001c0: 35bb 8bba 5b80 dfbd 68f6 a93d 9182 1abe
000001d0: b21f bf3d a30e 2fbe a159 b6bc ff10 bfbe
000001e0: 52c1 b4be d084 e5bc 7661 55be 9a7f 943c
000001f0: 201e 7dbe c2c8 70be 1589 1c3e 0208 62be
00000200: c64a 643d f5e9 33bd 4d3f cc3d 0c87 31bb
00000210: ea9c 14be 8953 7b3d 1666 91be 696b ddbb
00000220: 2dae c23d 5e24 b53e 4a78 f43d 7cea 9ebe
00000230: 75b3 fabe 6dc3 863e 853c 1bbf 874e 5cbe
00000240: 7e89 563e b89a e63c d70b 3e3e 18cb f4be
00000250: dc5e 68bd 8a59 003d b65b 5a3e 0820 ca39
00000260: 7ab5 133e 08ed 8f3e 7453 7c3e 953e ad3e
00000270: 8163 23be d7e2 30be f0e6 d73c f4b4 b6be
00000280: a81e 7abc 7008 5b3e e6a0 4cbe 25eb a7be
00000290: 3923 b3bd 8df4 a1bd 012a 053f 4421 113e
000002a0: b914 ed3e 3eae 83bd f46e 0cbe e1af fbbe
000002b0: 877f 80be f348 dc3d 8945 a23d a08d f13c
000002c0: d700 82bb d90c 94bd 8c17 8bbb 0f1c bf3d
000002d0: efab bd3e 3845 17bf aa0f 5b3e d8c0 ac3d
000002e0: 3e35 c23e e82b c23e 4ba3 593e 455c a8bd
000002f0: 8da6 b8bd 4f54 813d 7799 113e 7d0f cabd
00000300: 5f60 073e 9e91 5f3c e5ed a8bd 68a7 a83c
00000310: 769c 0c3f d668 82be d1bd 393e 8d25 b5be
00000320: 25f3 05be f00b 333f cd32 8d3e 91b3 aabe
00000330: af57 9a3e e542 06bd 917c 75bc 500e 90be
00000340: d039 2d3e 7138 39bd 18ef 74bd cf3d 553e
00000350: 2c04 e93d d348 da3d 481f e43e e60a abbd
00000360: f424 183f 9735 4ebd bf4d 5d3e 52a1 b93e
00000370: d785 e33c 3a9b e53d 10f0 4b3d 21e3 25bc
00000380: d405 53bf b41a d63d 5105 a43e 1196 1dbf
00000390: 048f b2be 0199 2e3f d453 37bd 3228 f3bd
000003a0: ccfa 1f3e b7c3 103e 868b 2cbe f020 073e
000003b0: 0429 edbe 5fe1 b6be 3a0c bf3a b13f 45be
000003c0: 3bb8 3d3e 3cb0 a3bb f398 a3be 05e1 973b
000003d0: 9c1a 22bc 54d1 99bd d841 1c3f b1cb 50be
000003e0: a68f 1cbe dd97 a6bd 6e38 283d 9c90 e73e
000003f0: e475 fe3e 41c9 a83b 570f 7dbe 4755 633d
0.3437975 -0.25237536 -0.07507162 0.662397 -0.21989347 -0.35753083 0.15133534 0.067569636
0.07890965 -0.107201844 -0.13612324 -0.07136672 0.068399444 -0.56942594 -0.36234802 -0.49374712
0.030301612 -0.06365104 0.63244575 0.07308767 0.29640067 0.27015513 -0.3127659 0.0412881
-0.3470196 -0.14365493 -0.14554891 0.19728656 -0.12903276 -0.072728306 0.41474485 0.3948354
0.024512267 0.054880377 -0.07531554 0.4598641 0.22079119 0.04196758 0.04357463 0.03769232
0.0025779249 0.21113066 0.4922212 0.07325134 -0.28142068 -0.3471717 -0.07829278 -0.44572228
-0.50677997 0.45338842 -0.32628807 -0.514874 0.35969573 0.6509728 -0.55624735 0.24932685
0.6383899 -0.11073217 0.7094911 -0.5584201 0.26759124 0.6830357 0.00041353313 -0.21829972
-0.7498108 0.16812669 0.20929384 -0.0152714215 0.07146563 0.5971324 -0.34328845 -0.109975144
-0.2644766 0.07255147 -0.66234475 -0.30178234 0.5410007 -0.5206349 0.49385932 -0.14617726
0.19402775 -0.14876135 -0.11654363 -0.124687895 -0.2810155 -0.19826357 -0.06348126 0.054634944
0.03417313 -0.64221734 0.21322687 0.011844081 0.20139186 -0.2386113 -0.11302674 -0.07973595
-0.37875137 -0.102040865 0.0009927682 -0.07114748 -0.09305579 0.52553046 0.06467021 0.36428908
-0.37928557 -0.15512036 -0.013057454 0.09819243 0.32595912 -0.20378995 0.64661366 0.2987452
-0.001066065 -0.10913154 0.082989514 -0.1508887 0.09332217 -0.17095427 -0.022259535 -0.37317654
-0.35303742 -0.028017431 -0.2083796 0.018127251 -0.24718523 -0.23514083 0.15286668 -0.22073367
0.055735372 -0.04392429 0.09973011 -0.002708855 -0.14512983 0.061358962 -0.28398198 -0.006757189
0.09505878 0.35379308 0.11937006 -0.31038272 -0.4896504 0.26320973 -0.6063922 -0.21514331
0.20950887 0.028149948 0.18559204 -0.47811198 -0.05673109 0.03133539 0.21324047 0.00038552308
0.14424697 0.28110528 0.2464121 0.3383681 -0.15955926 -0.17274033 0.026355237 -0.3568493
-0.015266098 0.21389937 -0.19983253 -0.3279659 -0.087469526 -0.079079725 0.5201722 0.14172846
0.46304873 -0.064297184 -0.137142 -0.49157622 -0.25097296 0.107561015 0.07923419 0.029486477
-0.0039673853 -0.07229013 -0.0042447504 0.093315236 0.37045237 -0.59089994 0.21392694 0.084352195
0.37931246 0.37924123 0.21253698 -0.08220724 -0.09016142 0.06314909 0.14218698 -0.098662354
0.13220356 0.013645558 -0.082485 0.020587638 0.5492624 -0.25470608 0.18138815 -0.3538021
-0.13081034 0.6994009 0.2757782 -0.33340123 0.30145022 -0.03277864 -0.014983312 -0.2813592
0.16916585 -0.045219842 -0.05979833 0.2082436 0.11377749 0.10658421 0.44555116 -0.08351688
0.59431386 -0.050344076 0.21611689 0.3625589 0.02777378 0.11211248 0.04978949 -0.0101249525
-0.8243077 0.10454312 0.32035306 -0.6155711 -0.34874737 0.68202215 -0.04475768 -0.11872901
0.15623015 0.1413716 -0.16850099 0.13196158 -0.46320355 -0.3571882 0.0014575787 -0.19262578
0.1852731 -0.004995374 -0.31952628 0.0046349787 -0.0098940395 -0.07510629 0.6103797 -0.20390202
-0.15289173 -0.08134434 0.04106944 0.45227516 0.49699318 0.0051509445 -0.24712883 0.05550125
