experiments/cnf/toy/pretrained/pretrained_swissroll_alph30_15_m32_checkpt.pth (torch_old, 11596 bytes, 8 tensors)

A f8 [3, 3]
00000000: 06b9 f960 5033 ca3f 1265 655a 6fe0 cb3f
00000010: 76d7 baa3 e32d aa3f dd87 70cd a7fe 653f
00000020: 70f8 d030 c3c3 3b3f 5f23 261d d608 563f
00000030: 22ac a49b 91aa cebf 3af8 c913 d5c3 b73f
00000040: 6118 398a bc79 b4bf
0.20469097838526568 0.21778671182509207 0.05113135694175146 0.0026849057571931415 0.00042365565679237157 0.0013448801952071416 -0.23958034610527174 0.0928319142639972
-0.07998255133233691

c.weight f8 [1, 3]
00000000: 92b1 06bc 4663 c83f 050c 5c41 5722 9b3f
00000010: 9007 c475 b26b cbbf
0.19052967244114122 0.026498187412482128 -0.2142241549518613

c.bias f8 [1]
00000000: 0000 0000 0000 0000
0.0

w.weight f8 [1, 32]
00000000: c972 83a0 9f57 bcbf 0a4b 37c1 9c73 aebf
00000010: 7c5c 2953 3bc7 b83f 243b 4954 acfa c0bf
00000020: 492d f47f 7a53 993f 0e6d 65df 37d0 acbf
00000030: dd2b ee2f d2f4 98bf 3c73 0b41 ac16 6c3f
00000040: 4686 ecae ea3f acbf 8d85 0c79 a9c8 9cbf
00000050: 7ce8 890a f809 a8bf bb4f 5cd8 f94f a9bf
00000060: 96ec 208b 8296 9f3f ea65 337d 0caf b7bf
00000070: 7eeb a9d8 08ce 85bf 538e 71df d7f3 a4bf
00000080: 0fae 840d d578 803f 5800 bc36 2ca3 9fbf
00000090: 46bd 75ea e47f c2bf e84a 87e0 326e b5bf
000000a0: 00dd 2ece e23b b4bf a908 25a4 8f5e b8bf
000000b0: ca2a d4e0 ccd7 873f 29fd f130 1807 a83f
000000c0: 4361 48f2 d51c b3bf 4452 9224 bee0 c3bf
000000d0: da18 802a eea5 98bf f703 aae9 243f 6abf
000000e0: 5b04 fa2d 0dce c23f f187 2f17 08a5 b23f
000000f0: b717 d642 cdc2 943f e538 5602 cdf6 d33f
-0.11071202915941138 -0.059475802026687744 0.09679003506004052 -0.13264993777780731 0.02473250776260486 -0.05627607919697129 -0.024371418166577164 0.003428780015708814
-0.05517514596273236 -0.028109214795340832 -0.04695105675359998 -0.04943829313393119 0.030847587339149905 -0.09251478249225156 -0.010646885978749184 -0.04092287638266314
0.0080429692030384 -0.03089589199134965 -0.14452802131880044 -0.08371274930622585 -0.07903878721014124 -0.09519288785398551 0.011642075167875094 0.04692912671543532
-0.07465874829393208 -0.15529610429497798 -0.024070473999039922 -0.003203937621322424 0.1469131922240504 0.07283068243080472 0.02027435989796064 0.31193852642253567

N.layers.0.weight f8 [32, 3]
00000000: 409c d1fc 3ad7 e13f ad1e cf02 dae1 f23f
00000010: cb3b e60e 07d9 ef3f cf5c cdf2 0f4d f13f
00000020: e115 f91c dfda d9bf a739 d830 5283 933f
00000030: 438c 6719 1796 54bf 825c a24e 4efd b63f
00000040: 047b 1bb6 9eaa d03f 7f00 05c9 361f a3bf
00000050: 9fd2 e274 f245 ccbf 21cb b4c4 51b0 993f
00000060: 434e e17c 3ddc f1bf 7128 e45d aec1 eb3f
00000070: 7eb5 766d d08c cabf 7eee 190b 50a2 b4bf
00000080: 19c6 34e9 9a0f bfbf 775e 7fca ea70 d8bf
00000090: 5df6 c438 662e abbf 2b2c ac2f 4f21 d23f
000000a0: c7a9 9808 0a20 d23f d197 1851 fc68 bcbf
000000b0: 317c fde6 e511 c43f 9d12 b8be 2bf6 c93f
000000c0: 1f9e ab6b cdf2 f53f 91d7 5a96 cc64 f23f
000000d0: 41e1 00c5 1665 df3f 7346 32c4 e335 dabf
000000e0: b9f0 35c9 ea13 f23f 1c02 96d5 7138 dbbf
000000f0: e7a8 abfa c9a5 823f 6acb a883 f0dd 86bf
00000100: 0d93 94e5 3a2a d7bf 1e73 b44e 7bdc b2bf
00000110: 7b6e 91ff bd77 bfbf 0bca 4409 9242 d6bf
00000120: 055f f4b9 5f25 a4bf a806 7822 1026 d9bf
00000130: e0f3 0314 c8b0 eabf e0e8 1250 560a abbf
00000140: 876f 80ef dd4a f83f 5e52 e228 04c3 953f
00000150: f2e5 96a9 29e7 c53f 483d 617b 3fc3 b73f
00000160: dcd7 671d 223f 9dbf 30cf 17db 5b55 f2bf
00000170: 3e89 a4b7 ed26 d83f caa0 cf95 3eea e8bf
00000180: 5444 af38 1535 c1bf 1263 b49b 5576 b33f
00000190: 9803 8d11 a3db c5bf dc33 dce0 3871 ebbf
000001a0: 82f5 990a 3756 ea3f d2db d6ab 6de5 dabf
000001b0: 141d 0ad9 44d3 d8bf 3e1d 7a25 6bd9 c6bf
000001c0: c071 6066 4bbd dfbf 1ca1 1cff fc82 01c0
000001d0: ea4e e061 1ef0 b43f 632f 6181 e445 d53f
000001e0: 60f0 8190 0f73 c1bf 6489 3eb7 a2e5 f13f
000001f0: 9903 219c 447f de3f 9da0 78eb bde8 eb3f
00000200: 7d96 bc3e 6cce f83f 1b07 e095 070a e7bf
00000210: 684d 0f1d 5d10 bcbf 72a7 bd03 ca27 9fbf
00000220: 3b9f d119 e4ff d5bf 5c22 9b24 6398 c73f
00000230: 698a 68ef 79e9 c0bf b1f8 d854 7811 eabf
00000240: 8c7a 4e5f 4d42 73bf bdef e1bc 1dc0 74bf
00000250: 891a 4da9 f706 d5bf 6e1d 9001 7c0f dabf
00000260: 36ca c47b 81b9 f8bf 939f f3ae 8d7c cd3f
00000270: c360 63e3 b3ea c0bf a5a6 82b5 3b07 bfbf
00000280: c3ca f0be 78a5 d1bf 6ec6 88ec 6042 f93f
00000290: 177f 4871 4c43 e73f 7171 c710 f89b d33f
000002a0: ca82 c727 af5e d43f 1aef 05f1 6533 b13f
000002b0: ca7d 7279 2a3f c2bf 8ca5 1275 20d5 b93f
000002c0: c6d7 1a74 c3c0 c7bf cf2a 6cfa da23 acbf
000002d0: d1aa d411 fc5f 883f cf1e 1329 1d0a c1bf
000002e0: e3bf da28 e3eb e0bf cc4a b353 e6a5 d6bf
000002f0: cd94 8998 015f c43f abad bb3e 8af4 f2bf
0.5575232446543694 1.1801395520905473 0.9952426234248092 1.0813140377484165 -0.4039838583888394 0.019055637580146414 -0.0012564874247054248 0.08980264110356198
0.2604138162986802 -0.03734751895763199 -0.22088461596799377 0.025086667662615917 -1.1162695768479274 0.867392714864094 -0.2074223074427372 -0.08060169478442877
-0.12133186524877039 -0.3818919160380356 -0.05308837359414718 0.28328303962252005 0.2832055171917571 -0.11097695331463277 0.15679620531861496 0.20282503902867158
1.3717779355882909 1.1496091721760175 0.4905449794637385 -0.40953916702083076 1.129862581233324 -0.42532010896687367 0.009105279886587115 -0.011165503518986337
-0.36195251865346806 -0.0736767832899656 -0.12292087068038342 -0.34781313805720576 -0.03934764046624476 -0.3929481827363852 -0.8340797797133028 -0.05281324126686271
1.5182780604872919 0.021251740451207694 0.1711170270989864 0.09282299768641622 -0.028561146778848343 -1.1458395536728396 0.3773760121713571 -0.778594296073629
-0.1344324614315463 0.07602438975699169 -0.1707652888963167 -0.8575710670280574 0.8230242926653519 -0.42025319844418363 -0.3878948325659206 -0.17851008729869905
-0.4959286212704477 -2.1889591150867442 0.08178892030292287 0.33239090571145463 -0.13632387691530123 1.118563381002411 0.476517822713555 0.8721608733221903
1.5503961992884847 -0.7199743201492511 -0.1096246906229702 -0.03042522094566586 -0.3437433483254499 0.18433799064065937 -0.13212513151036667 -0.814632573812352
-0.004701902614128738 -0.00506602875077172 -0.32855025800055465 -0.40719509270316834 -1.5452895006861929 0.23036356966553892 -0.1321625576299593 -0.1212041204586521
-0.2757245888380277 1.5787057151432253 0.7269651615679064 0.30639459265309826 0.3182790649862396 0.06719052442889187 -0.14255267076531047 0.10090830667708967
-0.18557017487699862 -0.05496105486789348 0.011901826185370197 -0.13312115197753946 -0.5287948415698306 -0.3538757150064782 0.15914936016193906 -1.1847021532547426

N.layers.0.bias f8 [32]
00000000: 07b3 e589 3acd 0ac0 798c e5af d408 0440
00000010: fd59 5216 b682 d63f 8426 12e7 b466 f3bf
00000020: e65a 8f26 9de1 df3f 162e aa98 8e85 dbbf
00000030: b654 4c0b 47ca e53f 878e dfaa 5758 0040
00000040: 057f 7d4e 4bd9 e7bf 208e f581 d98b 0940
00000050: 057c 8675 64c7 c6bf 6f8d ad3a 5260 a6bf
00000060: e177 4d50 9e3a e4bf 3f0e f1da 7e09 933f
00000070: 4f5c 2df8 b183 f2bf 3b16 05e6 a044 0a40
00000080: b671 44e7 57f3 f73f 0a69 07e7 e66e 06c0
00000090: 6de9 dd2a 8170 d4bf 8c65 b3c6 8a8c 00c0
000000a0: f83b a35a ccd4 f6bf 7a68 e8ef 98b2 0440
000000b0: c7b6 6c2a 462e e1bf 43b6 87aa 33d6 cf3f
000000c0: 84de 7975 3cf5 c1bf 57f4 612b a30f efbf
000000d0: 65ce be03 54b1 eb3f 03bb 2faf 10ef b23f
000000e0: 3366 06a1 811d fabf 071b b923 3c63 f23f
000000f0: 2cad b21a 02d5 f4bf fa38 404d 8520 eabf
-3.350209309885375 2.504311918442508 0.3517279832825862 -1.212574865933136 0.4981453777849495 -0.4300266733996251 0.6809420796077095 2.043135962436114
-0.7452751667987917 3.1932859566748135 -0.17795997370282648 -0.043703622496446985 -0.6321555679712639 0.018590910065780838 -1.1571521467610812 3.2835100145628338
1.4969100030785802 -2.804151348985333 -0.31936673341956273 -2.0686240695474165 -1.4269526997120447 2.5872057669449164 -0.5368986919981688 0.24872442080179455
-0.14029651390204745 -0.970658859950741 0.8653965066100225 0.0739603450490272 -1.6322037019766753 1.1492272754127855 -1.3020039599312652 -0.8164698132329982

N.layers.1.weight f8 [32, 32]
00000000: 93b9 bd6f 965c d13f e913 0988 f731 ec3f
00000010: 1224 df31 88ca e83f 0ab0 931a a414 d63f
00000020: 2474 903e 072b ad3f 5be4 fe7e edd9 df3f
00000030: f520 85da cd25 dc3f 5af1 60ab 8999 da3f
00000040: c212 24be 3f54 d33f b7ee 2c23 9c10 e83f
00000050: 65a6 9807 3c7c df3f 22ef fe2e 82e3 e23f
00000060: 1125 8eba e233 dc3f 0d81 ace2 1300 ce3f
00000070: fc0c 2f38 b7fb db3f bfef 5c64 4d7f e03f
00000080: 86fe 44a7 bc00 d43f 8939 77db c641 ec3f
00000090: 9926 a621 f1f4 a03f 1a83 9b24 376a d13f
000000a0: 5c14 6532 bc97 e0bf bef0 aa54 0c77 e63f
000000b0: fb2b fe53 20be d33f ad24 68b4 1fca aa3f
000000c0: f2a2 0140 5bb3 e93f 69fb acce 2a66 e7bf
000000d0: a78b 6f8c a102 973f d9c2 71d7 ee44 e9bf
000000e0: 23a2 bf40 9329 c13f 552f 2a92 e5d9 a43f
000000f0: 0fcc 917d c11d ed3f 191b 11b3 6bca db3f
00000100: 9af5 2983 d0db dfbf ca21 ef37 4b75 d9bf
00000110: 417a f8b7 1128 d4bf 524c 6081 41a7 bfbf
00000120: eb9d 71c9 da9b c03f bdf4 456b 658d aebf
00000130: 86f2 34f5 f5e6 d6bf e9ad 3b8f 0311 eebf
00000140: f7d4 6bc3 89fc ccbf 1359 5292 587f e4bf
00000150: be96 6c7a e9aa e7bf 1e47 33da 95df dcbf
00000160: 4982 dd17 dcd7 9abf 13b1 bd44 5c5f b63f
00000170: c7b3 97ee f8a7 bbbf 5c28 308d 2550 e0bf
00000180: 1382 cc46 0cb0 c5bf 1558 aef1 76ba d6bf
00000190: 7c76 2caa f906 c23f 91ab db57 6e24 abbf
000001a0: e3af 358a 4619 d53f 3c79 bfa8 8894 cebf
000001b0: 6224 06e4 99ae 4ebf a5c2 970a 61d3 923f
000001c0: 5698 f3ab ca71 e6bf 7898 81b3 6ffd da3f
000001d0: e234 15b0 4dbd d0bf 0858 e6f5 0420 d73f
000001e0: b4c9 a8b7 d67f e5bf 75e5 fc58 3c2d c2bf
000001f0: 781e 96c4 b078 d6bf e89c 87c7 ee81 cfbf
00000200: b763 ad31 93c4 d63f 90fd 7c94 9dae cc3f
00000210: 9df6 6aef 94cf d7bf 48b7 6e41 8b27 e8bf
00000220: fb7a b5ef 2176 e3bf 6bd7 de28 057b dabf
00000230: b317 aace e407 e0bf 2718 8c07 36d5 e0bf
00000240: b304 3a53 718e e73f a5fc 07b9 847e be3f
00000250: 803b 5c5a ddde e0bf 7637 e063 0c0c e5bf
00000260: 035f 84f7 1302 e0bf 6912 8b2d 43bc d0bf
00000270: 4885 c6d6 3c9a e2bf 3852 d187 41be d33f
00000280: 2931 f418 13f2 e0bf b450 3034 6bd4 8b3f
00000290: 28e9 c931 a025 babf 9f56 6771 bd1f c53f
000002a0: bbd0 0243 54e7 e0bf 0482 3085 42b4 d43f
000002b0: f9e5 55ab 0dac d8bf a60a 0868 1453 d8bf
000002c0: 33b7 f504 c644 e2bf 8872 2504 1e51 eabf
000002d0: aa19 1dc0 9407 e1bf c914 fc79 966c f0bf
000002e0: f17d b019 94d6 ddbf 2a7c 92f7 214b d9bf
000002f0: c8be cbe1 66f8 d7bf 0b4f 8c70 6c06 d1bf
00000300: 90e3 9963 a472 f0bf c8d0 07dc 357a e8bf
00000310: b670 d6ca 99db e0bf ffc4 9f79 21cd c6bf
00000320: a9f0 7280 fe1f c8bf 8e8b d3ab 841f d4bf
00000330: c476 7b69 5f24 eebf 4f73 d1b2 1e4b ecbf
00000340: eae2 0361 1cc9 dbbf 59d8 33d0 1c6c e2bf
00000350: 4c19 9bfb 925c e3bf e5e8 9402 2d03 c1bf
00000360: fe80 a0f8 3ecc c13f 2788 4a64 cdce ab3f
00000370: 4286 ca26 a806 c3bf 0867 202b ae9d e9bf
00000380: 4b92 6081 b8eb debf ed7e cb8c 53c0 efbf
00000390: 9b8b a784 82ca d7bf cd21 be2d c127 e4bf
000003a0: 9c78 f9bb 9e3f d83f d124 e381 997b e6bf
000003b0: 2ff5 f87d d845 e2bf c90f 75de a272 d2bf
000003c0: 6e8d de49 c3d0 b6bf 636d 039c 06db e83f
000003d0: 8114 89c1 f7d9 c4bf b36b 4dc2 93e7 f83f
000003e0: b417 a291 6148 e3bf fd4c 8b63 ae91 d8bf
000003f0: 0ce5 8c5e c4a2 d0bf 3f47 3351 7f26 dcbf
00000400: 333d 9668 acb1 d23f c405 d484 5e23 cd3f
00000410: ae3d d2ce 4cf4 c13f 62c6 06ee b60f bbbf
00000420: 35b1 2637 3c13 d4bf fcc8 b9e4 326c be3f
00000430: 71ac e44d f9bd a43f 2602 691c 4d09 d13f
00000440: 468b 27bd bb96 be3f bd80 03ff 4aa9 c63f
00000450: 48aa 93b6 4c91 c1bf 3ed1 e7a6 2f4a babf
00000460: f7d5 41c1 846c be3f fd46 6c14 f6f9 c63f
00000470: 46d9 3530 023b c03f 6c8d c8d6 2096 dd3f
00000480: acb5 843e 1053 a7bf 808e a32c 7592 d93f
00000490: 148c 7309 5999 d13f 026c 3406 4eb5 c43f
000004a0: b625 f30a 6d8a dcbf f096 3fce f784 da3f
000004b0: 26d5 2377 31c8 d73f c11c 16c7 4ee3 c23f
000004c0: a29e 7e78 4f16 dcbf e57e fef5 c5ba d9bf
000004d0: a18d 1650 0ee3 d13f 36d6 24cd 1ca6 e5bf
000004e0: bee0 9edd 3a27 be3f 9e3c de92 a9ef c73f
000004f0: f794 0b68 6185 d43f 504c 3afa 454e d73f
00000500: 44dc 36a8 593f c83f 7127 d149 ba26 da3f
00000510: f36e 8a1f 724a d93f 9a14 2b35 3815 c83f
00000520: 53b4 832f c7a5 a0bf 9914 610b 4cb3 cfbf
00000530: 8c7e 4f8a a577 c43f c6eb 470e 42f8 c83f
00000540: c665 a69a e5cb d53f c06a 6973 301b cd3f
00000550: 1507 44e7 a541 dd3f 8bac 320f 32c2 cb3f
00000560: 5924 96f1 ccd1 d13f 5ec8 5c95 2e53 93bf
00000570: 6919 6159 3be1 c2bf 73bc 63c1 1e5e cb3f
00000580: 477b c7e2 111f bd3f 6ab6 e576 1715 c03f
00000590: a235 3be6 ab61 c7bf c520 07b5 13ee be3f
000005a0: 988d e7ce 7f87 8fbf 3b5c fc4a 1d5d be3f
000005b0: f525 3080 93f1 d2bf 01e6 ae02 5e3c d0bf
000005c0: 508f a083 ac7a d33f a4d3 24c0 10a2 e1bf
000005d0: c051 64f5 e3eb cabf 0042 f8e7 58df cdbf
000005e0: fc12 c66e 6a3a c53f 3aed c2b1 08a0 cebf
000005f0: 388f 65ae 3473 d03f 581c 884e 345e d5bf
00000600: c49d 97f9 a928 cb3f 2761 d4d5 5be7 d63f
00000610: 2f39 212b 8fad df3f 501a 9423 8489 783f
00000620: bc26 d0ec 9837 963f 5ee2 758e f66d b7bf
00000630: b1e6 024b 369a d23f 2a32 79fa 21ec db3f
00000640: f879 7bb9 9149 c33f 0ca2 ae82 ed2e c13f
00000650: be23 cfc3 5105 e03f 92fb f978 8c71 dd3f
00000660: b443 955c 46f5 cc3f 24a8 fc8e e281 b4bf
00000670: 7c1c 92db 4061 b93f 4b3e f719 c4d4 d13f
00000680: fa93 810d 8c38 cb3f 5009 6b9c 0cd5 a73f
00000690: b884 514d 1ead d0bf b210 8280 446e c73f
000006a0: 185b d486 d3f0 c33f 571e 63ad 2501 d03f
000006b0: bcb1 819b 029e a53f 2760 f56b ae1d d1bf
000006c0: 61d3 1fd8 52fe d83f 6690 a263 0697 e1bf
000006d0: 2d95 d7fa cc4c 963f 555c 9008 c281 cfbf
000006e0: 9746 920b 05b9 653f 7712 9bd2 e9fe a4bf
000006f0: 85b2 1d93 057a c63f f7fe 8577 7f04 cbbf
00000700: 26b2 766f 9957 d3bf dc40 e2fa 0a30 e3bf
00000710: c042 5d76 6f33 e5bf 9803 fc8a 060d e1bf
00000720: f6f4 3286 ccd6 d4bf 4a32 1b3a 5520 e4bf
00000730: db86 0aaa 3b22 f0bf af19 7c7d 459a e6bf
00000740: 97b7 2800 1fe3 c73f 429d c8fd 0b0a dcbf
00000750: 4db8 1ed2 731f e9bf 1c61 b3fb 0cae e5bf
00000760: 77a1 516e 38c9 eebf ec0a f27a 5c74 dcbf
00000770: 68bc 0f4a f2e8 ddbf d930 1d58 2ce4 c8bf
00000780: 6c6c 8748 1f13 dbbf af00 0492 0fd1 e4bf
00000790: 9acf aad3 1834 dabf ef60 3005 49b2 a03f
000007a0: db43 b935 d156 debf efcd 90b4 6ff1 d7bf
000007b0: 9c8d b8ce ef63 e4bf d4ec 424e 96c6 dfbf
000007c0: 75a0 7771 1155 f2bf 8326 2469 1e40 96bf
000007d0: 3fc3 385f 294c e2bf 1d4b 5610 52c4 cebf
000007e0: 0811 0723 c6a7 e3bf 7bab f975 83c4 dabf
000007f0: 5ba5 296b d2f3 edbf c609 c995 e31c d5bf
0.2712761012288862 0.881099477476366 0.7747231458716917 0.34500982852364415 0.05696890486454034 0.4976762523834332 0.4398073801026066 0.41562120186042295
0.3020171505780064 0.7520275771161867 0.4919576715643415 0.5902720373046331 0.44066684931074557 0.23437737052973553 0.4372385071439593 0.5155398330893987
0.3125449784747406 0.8830293928565861 0.03311875854258268 0.27210787367771305 -0.51852235644095 0.7020322469393461 0.30847938730647656 0.05232333256942332
0.8031440973400932 -0.7312215839991555 0.0224709741559185 -0.7896646697900805 0.13408127461959038 0.040724920360928486 0.9098823025254904 0.43422977911943544
-0.49779141243910774 -0.3977840467673813 -0.31494563070183196 -0.12364587219808357 0.1297563060390837 -0.05967251715171915 -0.357846726856032 -0.9395768926164553
-0.22645685236026455 -0.6405451639027738 -0.7396132842156573 -0.45114656742690495 -0.02621406455671352 0.0873925845932642 -0.10803180527700738 -0.5097835309582126
-0.1694350572297628 -0.3551308975378345 0.1408378678251444 -0.05301232168661508 0.3296676969246148 -0.23890789260526357 -0.0009363414210820204 0.01838447215226559
-0.7013905867031649 0.4217185261717371 -0.261554166751763 0.3613293076863333 -0.6718553149315114 -0.14200548501120705 -0.3511163635052763 -0.24615273230231272
0.35574798442172145 0.22407884359743635 -0.3720447862686827 -0.7548271444299894 -0.608170478993855 -0.41375855437524106 -0.5009635960020574 -0.5260267398268795
0.7361380219955634 0.11911801831591846 -0.5272051586961055 -0.657720751829159 -0.5002536615674845 -0.26149062583525634 -0.5813278384049818 0.30848730338519514
-0.5295501220112203 0.013588750391172112 -0.10213662353081487 0.16503112828529695 -0.5282384213264985 0.32350218779359374 -0.3855013058851849 -0.38007078322713495
-0.5708952042457213 -0.8224020081502923 -0.5321754219265149 -1.0265106930758512 -0.4662218333123454 -0.39521073510144566 -0.3745362477338685 -0.2660170649626116
-1.0279888048810086 -0.7649182603331832 -0.5268067323372836 -0.178135094057815 -0.18847638389514046 -0.3144237211219484 -0.9419400272560883 -0.8841699116270351
-0.43414983247889316 -0.5756973329978435 -0.6050505556275225 -0.1329094183545926 0.13904559268940625 0.05431215142495232 -0.14864065069291327 -0.8004980890575277
-0.4831372512292417 -0.9922273397350786 -0.3717352195218894 -0.6298528569614575 0.3788830600441402 -0.7025878464566181 -0.5710260830307216 -0.28824683880179386
-0.08912296822977847 0.7767365500580293 -0.16290184926961973 1.556537398332449 -0.6025855869672712 -0.3838916751967217 -0.2599345134108979 -0.43984969072072383
0.29209432805596974 0.22764188276054942 0.14026794527715708 -0.10570853530114158 -0.31367402444699916 0.11883848270534608 0.04051188541264928 0.2661927010958912
0.11948750846890474 0.17704141094055173 -0.1372466937530865 -0.10269449066965294 0.11884336202805189 0.1795032119485355 0.12680079797764615 0.4622881028646677
-0.04555559886135127 0.39956406935946376 0.2749846069620514 0.16178298285453258 -0.44594884938541257 0.4143657220978261 0.37159382471812064 0.1475618812657782
-0.4388617207245976 -0.4020247366224637 0.2794833929167116 -0.676527405425708 0.11778610144290533 0.1870014159326034 0.3206408992831053 0.3641524261121889
0.1894332953795318 0.4086137505406589 0.39516881065513515 0.188147569619251 -0.03251478629122375 -0.24765921168924335 0.15990132573550786 0.1950762338381919
0.3405698786023915 0.22739225039807387 0.4571318396047997 0.2168638776978223 0.27843021004134055 -0.018872001520499608 -0.1474985300466856 0.21380981867648394
0.11375533854105156 0.12564366632016127 -0.18266819707643572 0.12082026643395512 -0.01539516306087911 0.11860831337649895 -0.29599463957182987 -0.25368452322035756
0.30436241964547595 -0.5510333779153496 -0.21032380563759823 -0.23337851835869117 0.16584520729897878 -0.2392588489509338 0.2570316031544624 -0.333874775591942
0.212178465720383 0.35787101632878876 0.49496821605579816 0.005990520637402755 0.021696462110446943 -0.09152165391959374 0.29066235852551886 0.4362873979596623
0.15068265492205035 0.13424462204899645 0.5006493400952576 0.4600554639254649 0.22623519440324247 -0.08010688773052316 0.09914021835912651 0.2786112073490343
0.21266317996483491 0.046547311872489616 -0.2605663065970236 0.18305259966667148 0.15578693469498073 0.2500700181230732 0.042221147043935287 -0.26743660490820037
0.39052268129244366 -0.5496856637951282 0.021777346430004108 -0.24614739816817868 0.0026517008341862647 -0.041007334669790056 0.17559880908392614 -0.21107476554970336
-0.30222164044497146 -0.5996146106790792 -0.6625287353327494 -0.5328400339641233 -0.32561028581024176 -0.6289468893897461 -1.0083576814872035 -0.7063319636225084
0.18661868579641513 -0.438113210521312 -0.7850894073396916 -0.6774964252499873 -0.9620630411782675 -0.4446021271361775 -0.4673429225212602 -0.1944632940525313
-0.4230421264925954 -0.6505201198451881 -0.4094297473013683 0.03261020840017347 -0.47404890295461904 -0.37411110528338914 -0.6371993100660123 -0.4964957966109982
-1.1457685882869815 -0.02172896877985987 -0.5717970714377784 -0.24036622808179056 -0.6142302211888202 -0.41824423333189714 -0.9360134213467676 -0.3298882448908923

N.layers.1.bias f8 [32]
00000000: 9c7d c6c2 c737 f03f 16bc 70a0 24c9 f1bf
00000010: c8b8 b9d1 98e0 f3bf d027 fec3 232d d4bf
00000020: 7886 9f0c fbbf e2bf ddc4 6c89 2038 e63f
00000030: 214b 193e 8787 e43f e176 8ae7 be79 f3bf
00000040: 556a bdb2 2639 d6bf c52e 22c7 fac2 ef3f
00000050: 191f 9457 898e db3f 9edd c5ff 4a21 e23f
00000060: aa03 b2ec f1de db3f 402f 039c 3479 d83f
00000070: 97ee 059b bdfd eabf bd88 cc89 24a1 d93f
00000080: e8e3 3df2 8136 bcbf 44d3 47c9 5d9c b9bf
00000090: d3a6 fb9a b21f c6bf deb7 8e5f 11ae e5bf
000000a0: b04f c64c da8e edbf 6281 9dfe 4dcb f23f
000000b0: d440 bda5 1f6c e23f aa97 5d05 35e1 aa3f
000000c0: 63f0 188b fd13 e6bf d338 e3ab 724e c0bf
000000d0: adb9 d9af f869 e4bf dd81 fa4b ae06 f93f
000000e0: be36 bbbd 5f04 cd3f 1c2e 5fcf d066 f4bf
000000f0: b091 37d5 78bb f9bf 66be bae6 ed8e d6bf
1.013618241158702 -1.1116071955873443 -1.242333239784374 -0.315255109214033 -0.5859351393266499 0.6943514522628466 0.6415439808718909 -1.217223076302098
-0.3472382302767632 0.9925512208296473 0.4305747370967637 0.5665640826763825 0.4354824840048034 0.3823977969702703 -0.8434742000385594 0.4004603715603812
-0.11020672000985565 -0.10004221118999818 -0.17284233634500498 -0.6774985185963904 -0.9236880778794241 1.1746349283131043 0.5756986844153524 0.05249944391725532
-0.6899402348276563 -0.12739404099415327 -0.6379359659747955 1.5641310661231878 0.2266959835455306 -1.2751014805279572 -1.608269532088439 -0.352473712274309
